convolutional-neural-networks/cifar-cnn/model_cifar.pt (torch_old, 549692 bytes, 10 tensors)

conv1.weight f4 [16, 3, 3, 3]
000000 24 ac 99 3d 51 d1 8a bd b8 77 7c 3e e0 7c e7 3c
       0.07503536 -0.06778205 0.24655044 0.028257787
000010 48 a9 33 3e 6d 85 ae 3c f9 37 ad 3c dd 83 8e 3d
       0.17545044 0.021303857 0.021144854 0.06958745
000020 22 25 d1 bd bd f1 b3 be 72 8d 5e be c5 1e ad 3d
       -0.10212161 -0.3514537 -0.21733645 0.084531344
000030 43 67 14 be 70 3c 56 3e 57 37 c9 3c d1 6c 13 3e
       -0.14492516 0.20921493 0.02456252 0.14396979
000040 97 c1 93 3c 49 e8 cc be 06 cf f9 bd c4 7d cc bd
       0.018036647 -0.4002097 -0.1219769 -0.099849254
000050 e6 b5 c0 3d 2d 35 c9 3c 01 19 13 3e 40 44 8d 3d
       0.094096944 0.024561489 0.14365007 0.06897783
000060 15 ab 8c 3e cb 80 29 3c f1 e4 af bc 31 d7 bc 3d
       0.27474275 0.010345648 -0.021471472 0.09220732
000070 d7 bb 32 be 96 be 33 3e 5b bf 9f 3d e1 ad ac be
       -0.17454468 0.17553172 0.0780017 -0.3372641
000080 57 13 c2 3d 54 b2 37 bd a9 be b0 3d 04 16 75 3e
       0.09476345 -0.0448478 0.086301155 0.2393418
000090 88 b1 da bd 8d d8 83 be 4d ba 17 3e d2 ac ac bd
       -0.10678393 -0.25751153 0.14817162 -0.084314
0000a0 d0 a1 89 bd 23 f9 a2 3e 8f a9 3f be 46 c5 32 be
       -0.067203164 0.318307 -0.18717025 -0.17458066
0000b0 ef 46 3e 3e a9 fe 1e bd e4 f7 5e be 03 b1 51 3e
       0.18581747 -0.03881708 -0.2177425 0.20477681
0000c0 6f 0a 45 be 82 fb fe bd 2e 03 7c 3e c7 60 82 bc
       -0.19242261 -0.12450315 0.24610588 -0.015915288
0000d0 08 ef 95 3d d0 07 c1 3d 1c ea a6 bd cb 25 d8 3e
       0.07320982 0.09425318 -0.081501216 0.42216334
0000e0 68 18 0f be 09 27 2d be 47 be a4 3e 2e ce 5e 3d
       -0.13974154 -0.16909422 0.3217642 0.054395847
0000f0 c8 86 55 be 44 be 66 3e 9a ec 52 be e9 18 4b be
       -0.20852196 0.22533518 -0.20598069 -0.19833721
000100 e1 d7 cf 3d 68 18 56 be 82 f7 2b be 5a 0b 2a 3b
       0.101485975 -0.20907748 -0.16793635 0.0025946707
000110 b1 bc 78 be 4f 68 23 bc 95 79 73 3e 00 e1 41 bc
       -0.2429073 -0.0099736 0.23776849 -0.011833429
000120 1d ae e3 3d bc 23 08 3c e1 57 00 3e 46 fe 70 3c
       0.11117194 0.008309301 0.12533523 0.014709061
000130 db 12 0a 3e 73 11 03 be 82 07 44 be bb 79 94 3e
       0.13483755 -0.12799625 -0.19143489 0.28999123
000140 10 db 12 be b8 c0 0d 3e b2 36 c3 3c 7f 2d 22 3c
       -0.14341378 0.13843048 0.023829792 0.009898542
000150 03 6f 74 3e 79 c2 01 3d 1f 0b 36 bd 01 1a 6a bd
       0.23870473 0.031679604 -0.0444442 -0.057153706
000160 96 4e 3b be 2d 7e 37 be 54 50 b4 bd 24 05 f7 bd
       -0.18291697 -0.17919226 -0.08804384 -0.12061527
000170 f7 54 4a be 8f 2f 2d bd 0e 14 db bd ed 24 24 be
       -0.19758974 -0.042281684 -0.106971845 -0.16029711
000180 6b 70 74 3d 79 b0 22 be 94 75 20 be 17 0f 78 3d
       0.059677523 -0.15887631 -0.15669852 0.060561266
000190 5d 41 12 3d 37 f4 ac 3d f2 8a 22 bd e3 e0 01 3e
       0.035706867 0.08445018 -0.03968329 0.12683444
0001a0 db 48 2e bd 5a df e1 3d c2 c8 1c 3c 83 a9 72 3e
       -0.04254995 0.11028929 0.009569349 0.23697476
0001b0 93 8c 24 be 04 75 2c 3e 36 a5 98 3d 3b 7b 4d be
       -0.1606925 0.16841513 0.074533865 -0.2006654
0001c0 0b e8 c0 bd b4 ec 1e bd 31 90 cb 3e d7 8d a2 bd
       -0.09419259 -0.038799956 0.39758447 -0.0793721
0001d0 f4 4e 05 bc cd 8c 35 be 19 d6 79 3d 3a 90 78 3e
       -0.0081365 -0.17729492 0.060995195 0.24273768
0001e0 de 63 9b be fe 3d 59 3b 16 c8 48 3d aa 75 e9 3e
       -0.3034963 0.0033148522 0.04901894 0.45597583
0001f0 49 73 40 be 9b ca 38 be e8 14 c7 bd 3c f9 2c 3e
       -0.18793978 -0.18046038 -0.097207844 0.1689195
000200 b7 2f 3c bd 54 d5 be bd cc e9 a1 bd b7 77 09 3d
       -0.045943942 -0.09318033 -0.07905921 0.033561435
000210 60 26 90 3e c3 9a f7 bd 29 e4 33 bc 89 6d 8f 3d
       0.28154278 -0.12090065 -0.010979691 0.07003314
000220 ce 58 ff bd e9 46 8b be be fc 6d bc af 97 54 3b
       -0.1246811 -0.27202538 -0.01452559 0.0032439043
000230 63 a5 99 bd 62 d2 04 be cb 64 65 3e d7 05 a0 be
       -0.07502248 -0.1297088 0.2240173 -0.31254455
000240 ca 3f 54 3e 68 9c 3b bb e2 17 99 be fe eb 8a 3e
       0.20727459 -0.002862716 -0.29901034 0.27133173
000250 d1 4d a2 3e 6b a1 11 bd c4 71 94 3d cd 69 2c 3e
       0.31699994 -0.03555433 0.072482616 0.16837235
000260 1f 4f ee bd 2e 06 62 3d 41 40 33 3d 85 fd 89 be
       -0.11636185 0.055181675 0.04376245 -0.26951233
000270 37 5f 68 3d 45 ef 97 3d 51 8d 8b be 8d 21 8f bd
       0.05673143 0.07418684 -0.27256253 -0.06988821
000280 03 d7 7b 3e c4 36 56 be 0f bc 47 bd 72 61 19 3e
       0.24593739 -0.20919329 -0.04876333 0.14978579
000290 b3 f1 fd 3d 77 79 79 3e d6 c7 ac bc 04 cf 1a 3e
       0.12399616 0.24362741 -0.021091383 0.15118033
0002a0 08 d2 ed 3d 9c 55 f5 3d f2 cd 6a 3d bb 0d 27 3d
       0.11612326 0.11979219 0.05732531 0.04078458
0002b0 47 12 b9 3d 11 25 a9 bd aa f2 85 be 20 4d 92 bd
       0.09036689 -0.08259023 -0.261617 -0.07143617
0002c0 e2 b0 ac bd ef b1 45 be c2 b5 24 bd 10 0f 06 bd
       -0.08432175 -0.19306158 -0.0402124 -0.03272921
0002d0 08 1e 16 3d 6d 30 3e be 67 96 9b 3d bf 1b b1 bd
       0.036649734 -0.1857316 0.07597046 -0.0864787
0002e0 b9 9a d8 bb 88 52 d0 bd b3 cc 1d bc e1 f3 19 be
       -0.0066102413 -0.101719916 -0.009631324 -0.15034439
0002f0 0e cc 9c bd de a6 09 3d d4 fa 1d be e8 e0 59 3d
       -0.07656108 0.033606403 -0.15427715 0.053193003
000300 df 37 a8 3d 7e 99 9e 3e 0a 87 ac 3e 63 f4 1c be
       0.082137816 0.3097648 0.33696777 -0.15327601
000310 d4 e9 86 be 2c fe 80 be cb 59 bf 3d 3f 68 0a 3e
       -0.26350272 -0.25193918 0.093432985 0.13516329
000320 53 38 fd 3d c0 98 fd bd e6 5c b9 3d 59 7c d4 3d
       0.123642586 -0.123826504 0.09050922 0.1037528
000330 bc 3a 69 be 2b e0 e9 bb 71 17 7b be 85 37 3d bd
       -0.22776312 -0.0071373186 -0.24520661 -0.046195526
000340 ec 4b 8f 3d 74 ef 5e be 80 fd 52 3e 3b 28 33 3d
       0.06996903 -0.21771032 0.20604515 0.04373954
000350 62 2b b6 3e c6 36 70 bd d8 a5 2c be 5b 6b 10 3d
       0.35579973 -0.058645986 -0.1686014 0.035258632
000360 ee 5a 5c bc 19 ab c3 3d c3 8f f6 bd cc 49 c9 be
       -0.013449414 0.09554119 -0.12039139 -0.39314115
000370 42 13 ac bd 9e 62 ef bc 69 b8 e8 3c 09 70 e9 3d
       -0.08402111 -0.029221829 0.028408246 0.11398322
000380 5b 07 55 be 35 6e 78 3d ae 56 37 3e cf ab ec bd
       -0.20803587 0.060651977 0.1790416 -0.115562074
000390 bc 7b a2 bc 8b a7 38 3d 5b 05 63 3d 72 fc aa 3e
       -0.019834392 0.045081656 0.05542503 0.33395725
0003a0 b1 fd a3 3e ce 2e 6d 3e bf 33 8e 3e b8 0e c4 bd
       0.3202949 0.23162386 0.27773854 -0.0957312
0003b0 d4 6f 34 bd ed 43 a0 be d0 e0 62 be 65 3e 8d 3c
       -0.04405196 -0.31301823 -0.22156072 0.017241666
0003c0 0d 87 1b be 23 80 c3 bc e0 e8 ff bc cf b5 ae 3e
       -0.15188237 -0.023864811 -0.031238973 0.34123084
0003d0 9e 5a 67 3e 69 2b 3e 3e f5 24 ca 3b d9 25 a5 bd
       0.22593161 0.18571247 0.0061689564 -0.080638595
0003e0 cc c6 92 be 9c 9a 02 be 00 91 1e be 9d 62 1d be
       -0.28667295 -0.12754291 -0.15485 -0.15369649
0003f0 2f e4 51 bd 4e 8b a5 3e 28 41 25 bc 0a 1f b9 3d
       -0.051243003 0.32332844 -0.010086335 0.09039123

conv1.bias f4 [16]
000000 18 5c 6a bd fb e8 81 bd 6c 1e 8e bd 09 00 0b be
       -0.057216734 -0.063432656 -0.06939396 -0.13574232
000010 fb 50 6b bd e1 38 79 be 0a 3b 94 be 7e 19 0c be
       -0.057450276 -0.24338104 -0.28951293 -0.136816
000020 02 78 51 bd d7 5e 25 be b6 13 ba bc a7 af 2a be
       -0.05113984 -0.1614946 -0.022714477 -0.16668569
000030 07 06 ba bd f9 d4 be 3d cb f9 1f 3d 86 dd 1d be
       -0.09083181 0.09317965 0.03905658 -0.15416536

conv2.weight f4 [32, 16, 11, 11]
000000 55 b7 4d bc 71 98 38 3b 5f 4a f4 bb 9e 3e bf bc
       -0.012555917 0.0028167034 -0.007455155 -0.023345288
000010 00 b0 d3 bc 7a 16 31 3b a7 35 aa bc 64 0a ea bc
       -0.02584076 0.0027021454 -0.020777537 -0.028569408
000020 27 f1 9e bc 36 23 2b 3c ae 90 56 3c f5 33 a2 bc
       -0.0194021 0.010445407 0.013096018 -0.019800166
000030 a1 41 e2 bc 83 5f 1a bc 9d 24 55 bc cb e3 de bc
       -0.027619185 -0.009422186 -0.013009218 -0.02720823
000040 81 c8 0a bc 7e d1 98 3b f7 e7 e5 bc 56 c0 57 bc
       -0.008470655 0.0046636453 -0.028064711 -0.013168415
000050 8c 9b 61 3c 94 04 4f bb 62 12 f8 ba 89 43 1c 3c
       0.013769995 -0.0031588422 -0.0018926377 0.009537586
000060 7d 3b df 3b 78 cc e9 bc f4 a9 0d bb 95 53 40 bc
       0.0068125115 -0.028539881 -0.0021616193 -0.0117386775
000070 c6 d3 0e 3b 89 fa 60 bb 16 a5 e5 ba 52 d4 b2 3b
       0.0021793707 -0.0034329018 -0.0017520513 0.0054574395
000080 1f e6 3e 3b 8c f4 df b9 f3 fd 88 3c 10 17 3d 3c
       0.0029128862 -0.00042716076 0.016722655 0.011541143
000090 a7 c9 3d 3c 60 87 24 bc a1 e4 9a bc c1 db 59 3c
       0.011583722 -0.010042042 -0.018907847 0.013297022
0000a0 da 34 82 b9 a6 a4 a7 bc 3b ff 82 bc 3e 47 26 ba
       -0.0002483491 -0.020464253 -0.015990844 -0.00063430134
0000b0 3c 32 18 bc 37 29 09 bc 9c 8c 04 bc 2f 78 86 ba
       -0.009289321 -0.008371643 -0.0080901645 -0.0010259206
0000c0 f9 cc d6 bc 5c bf 50 bc 5e 08 45 bc 16 3e 11 bc
       -0.026220785 -0.012740936 -0.012025921 -0.0088649
0000d0 fd d4 d6 bc 78 1e 58 3c b1 85 d2 bc da f6 b7 bc
       -0.026224608 0.013190858 -0.025698515 -0.022456575
0000e0 cb e3 bd 3b c1 d7 bd bc 40 77 bc bb aa 69 91 bc
       0.0057949773 -0.023174169 -0.0057515204 -0.01775058
0000f0 b3 3f b1 bc 13 b8 59 bc 21 3f d3 bc 6c 36 8d bc
       -0.02163682 -0.013288516 -0.025786938 -0.017237864
000100 bd a7 0b bc 2f 00 9e bc 88 6c c0 bc 7f 7d 9f bc
       -0.008523879 -0.019287197 -0.023489252 -0.01946902
000110 7d 69 f1 3b a8 05 78 bc 23 ce cd bc ee 30 aa 3b
       0.0073673115 -0.015138067 -0.025122708 0.005193821
000120 47 61 a9 3b 54 7a cd bc 5b e3 46 bc a4 11 bf bc
       0.005169067 -0.025082745 -0.012139167 -0.023323841
000130 e0 c4 df bc f4 6c f2 bc 9f 46 32 3c 0a bd e1 bc
       -0.027315557 -0.029592969 0.010881095 -0.027555961
000140 f6 2b 9f bb 0c 14 95 3c 65 62 8b bc 45 30 af 3b
       -0.0048575355 0.018198036 -0.017014692 0.0053463303
000150 d9 35 01 3b b6 2b 12 bc ce 33 1a 3b f5 de 6e bc
       0.0019715934 -0.008921554 0.0023529413 -0.014579524
000160 4b 6e c2 bc 9e f1 52 bd 58 dc 1b bd 4a dd b2 3a
       -0.023734232 -0.051499955 -0.038051933 0.0013646272
000170 71 00 bf bc 45 ab d9 bc dc f5 27 bd 4b c2 ac bc
       -0.02331564 -0.026570925 -0.041005954 -0.02108874
000180 ab 05 f8 bb ef ae 42 bb 12 f1 18 bd ac 28 bd bc
       -0.007569035 -0.002970632 -0.037339278 -0.023090683
000190 dd 9e 80 bc dc d7 99 bc 84 6c 6d bc c5 7d c9 bc
       -0.015700752 -0.018779688 -0.014491204 -0.024596104
0001a0 95 15 1d bd 8e 32 91 bc 3c 19 16 bd 9d 4a 1f bd
       -0.03835066 -0.017724302 -0.03664516 -0.038889516
0001b0 65 a4 c4 bc 3c 38 3f bd a7 f2 57 3c a3 91 8d bb
       -0.02400417 -0.04668449 0.013180411 -0.0043203398
0001c0 b9 cd 0f bc f4 fc c0 bc 2b ce 16 3c d5 88 a2 bc
       -0.008777075 -0.023558117 0.009204428 -0.019840637
0001d0 62 9b 59 3c 38 78 8d 3c f4 e8 49 3b 5b b1 50 3c
       0.013281675 0.017269239 0.0030809017 0.012737597
0001e0 f6 43 68 3c 96 e0 42 ba a6 88 0e bd 13 83 13 3c
       0.014176359 -0.00074339786 -0.034798287 0.0090034185
0001f0 8b 1d b1 bc 5e 41 6b 3c 74 4e 10 3c 8a 38 be 3c
       -0.021620532 0.0143588465 0.008807767 0.02322032
000200 5d 88 06 bc 7b 6e f2 bc 9f 47 19 3c 92 c6 f2 ba
       -0.0082112225 -0.029593697 0.009355455 -0.0018522313
000210 05 8a a1 3b a0 00 ac bc c9 ce 2c bc 41 d6 9f bc
       0.0049297833 -0.020996392 -0.010547348 -0.019511344
000220 0a 97 bf bc 78 80 9d 3c 34 93 78 bc e1 c5 cf bc
       -0.02338745 0.019226298 -0.015171815 -0.02536291
000230 d0 3f 21 bd 52 cc 1e 3c 75 13 1f bb fb fa 08 3c
       -0.039367497 0.009692268 -0.0024273072 0.00836062
000240 a1 1b 12 bc 59 dd 8e bb c5 e5 aa bc 06 bf b0 bc
       -0.00891772 -0.004359883 -0.020861516 -0.021575462
000250 9e 2e b5 bc 63 4e 23 bd cd 1e 55 bc 77 66 9e 38
       -0.022116955 -0.039869677 -0.013007832 7.553113e-05
000260 30 db 7e bc 85 5a 75 bc 1b 26 c4 3b a3 b0 2f bc
       -0.015555188 -0.014975195 0.005985988 -0.010723266
000270 56 fc 81 bb 9d e7 da bb 0d 45 13 bc e4 81 8e bc
       -0.0039668484 -0.0066804425 -0.008988631 -0.017395921
000280 9a 8c 4f 3c 77 8d e0 bc 83 0c d8 bc 60 c4 d4 3c
       0.012667799 -0.027411206 -0.026373154 0.025972545
000290 6b 16 0e 3b 87 16 c1 ba 40 1a a8 3b 3b d2 d7 3b
       0.0021680843 -0.0014731445 0.0051300824 0.0065863407
0002a0 22 22 c4 bc 5a e0 2d 3c 08 fb d1 bc 1e 02 71 3b
       -0.023942057 0.010612572 -0.025632396 0.0036774944
0002b0 d6 37 e3 bc 81 94 3a bc 95 c5 8d bc 33 e8 ab bc
       -0.027736586 -0.011387945 -0.017306129 -0.020984745
0002c0 03 38 23 bc 54 5f db bc eb 87 b4 bc 3b 7b 5a 3c
       -0.009962085 -0.026778854 -0.022037467 0.0133350445
0002d0 3d 52 2c bc 20 8e d8 bc e3 90 c0 bc cc db cd bc
       -0.010517654 -0.026434958 -0.023506587 -0.025129221
0002e0 dc 40 a9 3b 51 89 35 bc 5e 59 e8 bb fb b2 c7 3b
       0.0051652025 -0.011080102 -0.0070907315 0.006094334
0002f0 26 3a 7d ba 6a b6 e4 3a 88 14 6b bc 07 f7 4d 3b
       -0.0009659849 0.0017449383 -0.014348157 0.0031427757
000300 a5 2d d4 bc 30 d8 a1 3b a1 98 04 bc b0 ca 7d ba
       -0.025900671 0.0049391016 -0.00809303 -0.0009681387
000310 f9 64 38 3c 46 09 3e 3c 06 bd 05 bd ce 1d 9a bc
       0.0112545425 0.011598891 -0.03265097 -0.01881304
000320 09 c9 30 3c dd 4a 0d bd 3d ca 06 3c 4f b2 be bc
       0.010790118 -0.034495223 0.008226928 -0.023278384
000330 e9 da 5b 3b 40 47 c3 bb 3f 99 e9 bb 59 2a c3 bc
       0.0033547229 -0.0059594214 -0.007128864 -0.023823904
000340 b7 8c e9 bc 99 e3 d6 3b 6e bf 51 3c 0c d2 4d 3c
       -0.02850948 0.0065578935 0.012801988 0.012562286
000350 89 75 29 bd 77 94 33 bd e2 c4 2d 3c 17 bf 92 bc
       -0.041371856 -0.04384276 0.010606023 -0.017913384
000360 0a 8d 20 bd 8f bf 8d bc c8 63 32 bc cd f7 ab bc
       -0.039197005 -0.017303256 -0.0108880475 -0.020992184
000370 9a 9f a8 bc bb 8e 36 bc 52 53 11 3c 7d df 26 bd
       -0.020583916 -0.011142428 0.008869963 -0.04074048
000380 4a ac a7 bc 23 fb c5 bc 50 ca 04 bc ef ac 80 bc
       -0.020467896 -0.024167603 -0.008104876 -0.015707461
000390 c7 f8 8c bc 5b 5c 40 bc e2 dd f2 3b a1 ba 2f bc
       -0.01720847 -0.011740769 0.0074117044 -0.010725648
0003a0 bf 89 6a 3c 0c c3 98 bb c6 16 96 3c 92 c3 9b 3c
       0.014315068 -0.0046619233 0.018321406 0.019014154
0003b0 e0 e6 85 3c 9a d9 44 3c 95 15 bb bc 05 94 5c 3a
       0.016345441 0.012014771 -0.02283744 0.00084143906
0003c0 b1 22 3f 3c 47 7e 89 3c 0c 85 9d bc d7 f8 a3 bb
       0.011665986 0.016783847 -0.01922848 -0.0050040293
0003d0 3e 96 59 bc 7e 9f 7a 3c 08 76 bb bc 92 dd a8 bc
       -0.013280449 0.015296815 -0.02288343 -0.020613465
0003e0 f6 77 07 3c 49 a1 33 bd 94 9e 69 bc e3 85 29 bc
       0.008268347 -0.043854985 -0.014258999 -0.0103468625
0003f0 ba d4 d6 bc 5b 1a f2 b9 0a 13 a1 bc 57 d7 9c bc
       -0.026224483 -0.00046177473 -0.019662399 -0.01914565

conv2.bias f4 [32]
000000 3b 0f 50 bd 96 32 ea bc d5 0b 42 3c 6d 77 b7 bc
       -0.050795775 -0.028588574 0.011843641 -0.022395814
000010 e2 5f 80 3d 87 14 e9 3d 31 17 07 3d 67 29 a2 39
       0.06268288 0.113808684 0.0329811 0.00030929895
000020 09 d6 af bb ad 18 66 bc b6 3b 1f 3e 34 8e b2 38
       -0.005366091 -0.014043969 0.15550122 8.514189e-05
000030 b1 71 3b 3e ac 84 86 3e 8f 63 39 3c 85 4c 05 be
       0.18305089 0.26273096 0.0113152405 -0.13017471
000040 09 68 b1 3d 3a 84 3d bc d4 53 bf bc d3 a2 3b 3d
       0.08662421 -0.01156717 -0.023355402 0.04580958
000050 2d ae 93 3e 2e b5 5b 3e 90 91 06 3e ec 7a 4f bd
       0.28843823 0.21455833 0.13141465 -0.050654337
000060 31 70 02 3e bc a2 7b be 43 ea a8 bd 93 2c 82 bc
       0.1273811 -0.24573797 -0.08247807 -0.015890395
000070 75 56 39 3d 81 aa 3e 3e 06 70 74 bc 95 01 bb bd
       0.045248467 0.1861973 -0.014919287 -0.09131161

fc1.weight f4 [128, 512]
000000 f8 c2 15 3c 85 67 4c bd f3 3d e3 3c 52 b4 d2 3c
       0.009140722 -0.04990341 0.0277395 0.025720749
000010 80 bd 2a 3d 21 91 2d bd e5 3e 38 bb f4 00 93 3c
       0.041684628 -0.042374734 -0.002811366 0.01794479
000020 5a 25 fa bc f7 a5 27 bd 15 00 dd bc e5 2b 2f 3c
       -0.030535389 -0.04092976 -0.026977578 0.010691618
000030 07 13 94 3c 81 d4 c0 ba d9 13 f1 3c bd 5e e2 bc
       0.01807548 -0.0014711769 0.02942841 -0.027633065
000040 ad 77 37 3b 3b ea 22 3c 17 2c 45 bc e1 94 38 3d
       0.0027994916 0.00994354 -0.012034438 0.045063857
000050 50 25 ae bb a3 f1 32 3d f4 0d 55 bd 0d 39 43 3d
       -0.0053145066 0.043687474 -0.05201526 0.04766183
000060 85 64 8c 3c 42 46 c9 bb c7 77 59 3d 9e 5d 9f 3a
       0.017137775 -0.0061424086 0.053092744 0.0012158637
000070 f0 e3 d3 3c d4 5f 8f bc ba 9d c2 3c af 17 45 3d
       0.025865525 -0.01750175 0.02375685 0.04811829
000080 58 9d 0b bc ec c7 17 3d 11 f8 a2 bc 00 98 c5 bc
       -0.0085214 0.037055895 -0.019893678 -0.02412033
000090 9f 6e bf 3c dd ec 49 3c b9 75 03 3c a6 4d 59 bc
       0.023368178 0.012324539 0.008023673 -0.013263142
0000a0 21 48 17 bc 89 f0 41 3d 02 c9 3e 3d 2e 58 05 bd
       -0.009233505 0.047348533 0.046578415 -0.032554798
0000b0 d5 c8 86 b8 71 c4 d1 3c f4 0d e2 3c 7a 4b df bc
       -6.427026e-05 0.025606366 0.027594544 -0.02725767
0000c0 db 03 d8 3c cc b2 58 3c 4c 79 10 bd 0b 58 1d bc
       0.026369026 0.013226222 -0.035271928 -0.009603511
0000d0 7d 14 10 bd b6 65 da bc 5e d1 9a 3c 44 8b 7a 3c
       -0.03517579 -0.026659828 0.018898662 0.015291993
0000e0 1c cd 0f bd 37 27 2d bd f9 e7 09 3d 7b 90 8d 3c
       -0.035107717 -0.042273726 0.033668492 0.017280808
0000f0 c4 c3 b1 3b 51 10 b4 3c 7d 82 28 3b a8 6f 78 bc
       0.0054249484 0.021980437 0.0025712543 -0.01516334
000100 86 3a 7a bd 8f 82 be 3c c3 95 33 3c 4f c8 6c bd
       -0.06109097 0.023255615 0.010960999 -0.057808217
000110 7b 6b 94 bc e3 5d 38 3d 7a 66 7a 3d 42 18 80 bd
       -0.018117657 0.045011412 0.061132886 -0.06254627
000120 4c e0 cf bd 0e 67 c7 3d b1 2e 67 b9 71 a3 be 3a
       -0.10150203 0.09736453 -0.0002204727 0.0014544559
000130 a5 06 3b be b9 1b 52 bb 92 b9 65 bd d5 4a c0 bd
       -0.18264253 -0.003205998 -0.056085177 -0.09389273
000140 34 f9 8a bd 3d 2b 41 be 39 08 41 bd 84 d9 05 bd
       -0.06785813 -0.1886415 -0.047126982 -0.032678142
000150 e3 a5 1e be 42 07 d8 bd e6 9a 22 bc 82 41 52 3c
       -0.15492968 -0.10548259 -0.009924626 0.012833001
000160 7b 85 64 bd fc 6a e5 3d 6d a7 32 bd 71 97 91 be
       -0.05579136 0.11202046 -0.0436167 -0.28435853
000170 2c ac 2c be 7b 32 44 bd 6d f6 2b bd 42 c9 fb bd
       -0.16862553 -0.047899704 -0.041983057 -0.12294246
000180 fd b8 93 bb 57 2d ff bc a0 85 6b bd 78 cb d6 3b
       -0.0045081363 -0.03114955 -0.05750048 0.006555017
000190 26 67 ce bd b8 83 cc bc ca 95 a0 3d 3e 8f d9 ba
       -0.10078268 -0.024965152 0.0784107 -0.0016598476
0001a0 65 8d 88 bd c1 a6 85 bd a6 73 03 bc c0 c3 12 be
       -0.06667594 -0.065259464 -0.008023178 -0.14332485
0001b0 a7 dc ec 3b a9 c6 66 3c 0a 9a 5c bd fb 51 69 bd
       0.0072284522 0.01408545 -0.05385784 -0.05696295
0001c0 35 4d 0c 3d 4d e6 91 bc 06 99 1e bd bc 95 2a bd
       0.034253318 -0.017810011 -0.038720153 -0.041646704
0001d0 e1 fe 02 bd 3e e7 5f bc 68 71 14 bd e8 f2 14 3c
       -0.031981353 -0.013665972 -0.036240965 0.0090911165
0001e0 3b db 42 3d 1f 0c 0d bd f5 76 18 bc ce 3d e4 bc
       0.047572356 -0.034435388 -0.009305705 -0.027861502
0001f0 87 f7 c0 3a 4a 82 67 bc bb 42 0e bd 31 66 17 3d
       0.0014722206 -0.014130184 -0.034731608 0.03696269
000200 0a d2 08 bd 8e a6 db 3c af bd 85 bc a0 a3 c6 3b
       -0.033403434 0.026812818 -0.0163258 0.006061986
000210 9c 60 1f 3c af 5b 9b ba 52 2d e0 3b 76 0b fb bb
       0.009727623 -0.0011852885 0.00684134 -0.0076612784
000220 0b 8e ef 3c 75 06 2e 3d 8b 50 23 bc 0c 1a 9f bc
       0.029242536 0.042486627 -0.009967933 -0.0194216
000230 f4 f4 7c 3c 3a 2b 60 bc 53 df 0b 3d 88 30 45 3a
       0.015439261 -0.013682181 0.034148525 0.00075221853
000240 bb fc f2 3b 77 77 29 bb 45 ea 22 bc 17 4c 4f 3d
       0.0074153817 -0.002585856 -0.0099435495 0.050609674
000250 c2 b1 08 3b 3a 27 b6 bb 7a 82 c2 b9 de 20 32 bc
       0.0020857905 -0.0055588754 -0.00037099776 -0.010872094
000260 fd 66 0c bc 27 0b 38 3d 98 4e 1a 3c 0e ae 43 3d
       -0.008569476 0.04493251 0.009418152 0.047773413
000270 5e e3 11 bd e4 79 b2 bb 4e e6 93 bc 3d ab fd 3a
       -0.035617225 -0.0054466594 -0.018054154 0.0019353401
000280 ad 43 f9 3d db 9d 94 bd 79 13 d6 bc 31 b4 66 3d
       0.12171111 -0.07256671 -0.026132332 0.056324188
000290 51 4e 6b 3e d9 85 9a bd 2a bc ec 3c 5c 5f 52 3d
       0.22979094 -0.07545061 0.028898317 0.051360473
0002a0 fd f4 48 3c 71 be 0a 3d ca 88 d3 bd 94 05 f7 3c
       0.012265441 0.033873025 -0.10328825 0.030154027
0002b0 e5 3a 4d be f6 e3 22 bd 67 bd 7d bb d1 69 7d bd
       -0.20041998 -0.03976818 -0.003871763 -0.061868493
0002c0 a4 02 a8 3c 4a c4 10 3d aa 71 92 bc 8a 85 30 3d
       0.020509072 0.035343446 -0.017876465 0.043096103
0002d0 78 de f4 bc 60 16 ce bc e0 3c 3f 3c 58 a2 94 3c
       -0.029891238 -0.025157154 0.011672229 0.018143818
0002e0 74 12 5f bb 16 26 ed b8 d3 05 47 bc 8e f5 79 3c
       -0.0034038099 -0.00011308135 -0.012147385 0.015256299
0002f0 67 a0 0d 3d e0 7c c8 bc c6 62 9a bc 2c bf 83 bc
       0.0345768 -0.024473608 -0.018845927 -0.016082369
000300 61 d0 c7 bd 5a b5 43 3c b2 b7 46 3d ee a5 e3 3d
       -0.09756542 0.011945093 0.04851503 0.11115633
000310 4c db 1a 3e e2 80 82 3d 00 25 00 3b 0f 71 99 3e
       0.15122718 0.06372239 0.0019553304 0.2996907
000320 46 e9 a3 3c fd db 89 bd c7 59 d2 bd 16 c1 0f be
       0.020008694 -0.067314126 -0.1027103 -0.140385
000330 73 ca ea bd 40 fd a0 3d 3a f6 09 3d 31 a0 82 be
       -0.114643954 0.078608036 0.033682086 -0.2551284
000340 e2 8d f4 bd f1 08 92 3d 86 f1 07 3e b4 26 4a 3e
       -0.119411245 0.07130612 0.13275728 0.19741327
000350 f9 41 78 3d 67 fe ae 3d 60 87 01 3d e3 0b 3f 3e
       0.06060979 0.08544617 0.031623244 0.18656878
000360 a3 ba 66 bd af d9 fd 3d 65 be 99 3d 06 ee e9 bb
       -0.056330334 0.123950355 0.07507018 -0.0071389703
000370 33 e9 6b be 03 11 f2 bc e2 7b a0 bd 0f f0 62 bd
       -0.23038177 -0.029549127 -0.07836129 -0.05540472
000380 c8 41 5b 3a ca c5 89 ba d2 53 bd bc e2 60 f7 3c
       0.0008363989 -0.0010511216 -0.023111258 0.030197565
000390 4b 2e 17 bc 59 b4 0b 3d 72 b7 a8 3c 61 55 3a 3d
       -0.009227346 0.03410754 0.020595286 0.04549158
0003a0 79 6c c6 b9 02 6c ee bc 8f 88 11 bb a5 c9 a3 3c
       -0.0003784632 -0.029104237 -0.002220664 0.019993613
0003b0 0e d9 89 3c 5c 5f 3e 3d b9 b7 f4 bc f7 71 dd 3c
       0.016827133 0.04647766 -0.029872762 0.027031882
0003c0 1e 9f 0b be 4d 37 b2 3d 79 c4 14 bd 8d 84 20 be
       -0.13634917 0.08701954 -0.036320183 -0.15675564
0003d0 20 5c 48 be ab b7 04 be a9 cf 36 be ae c2 f7 bd
       -0.19566393 -0.12960689 -0.17852654 -0.12097679
0003e0 67 b7 e2 bd c9 fd e4 bd 54 cc df bd 70 96 65 bc
       -0.110701375 -0.11181218 -0.10927644 -0.014012918
0003f0 31 bd 52 3e 04 1f 32 3e ad dc 2c 3e 52 7e 98 3e
       0.20579983 0.17394644 0.16881056 0.29783875

fc1.bias f4 [128]
000000 42 d5 d1 3c 57 d1 9a 3e d0 50 65 3e 92 3b 6a bd
       0.025614385 0.3023784 0.22394109 -0.057185717
000010 eb 90 61 3e 61 70 6b 3d b9 f1 a2 3e a4 6d b5 3c
       0.22027938 0.05748022 0.31825045 0.022147007
000020 96 34 1b be e1 86 5d 3c 13 c4 32 3e 93 e2 37 bd
       -0.15156779 0.013520927 0.17457609 -0.044893812
000030 52 dc 0e 3e ca c7 ae 3e 33 dd af 3d ae 6f de 3c
       0.13951233 0.34136802 0.08587112 0.027152862
000040 e6 81 1d bd 66 6d 1b 3e 9b ad 35 3e c1 2e a3 bd
       -0.03845396 0.15178451 0.17742006 -0.07967902
000050 55 4a a9 bd 0e 65 0b bd 84 42 8f bd 4d 96 d3 3d
       -0.08266131 -0.03403192 -0.06995109 0.10331402
000060 f7 30 7f bd bd c7 0c 3d e9 59 6c bc 28 98 cd bc
       -0.062302556 0.034370173 -0.014425733 -0.025096968
000070 a2 9b c1 b5 49 c7 4c 3e da 5e 17 bd 6e 34 83 bc
       -1.4424916e-06 0.19997896 -0.036955692 -0.016016211
000080 00 85 3b 3e 01 0b c2 ba c1 c2 01 be c8 ac dd 3b
       0.18312454 -0.0014804305 -0.12671949 0.006764982
000090 ac 8a 12 3e d9 c6 54 bd 9e 2d 65 bd ef 37 ea bc
       0.14310712 -0.05194745 -0.055951707 -0.028591124
0000a0 a2 56 a5 bc c5 62 58 bd f4 4a 92 bd d4 07 94 bc
       -0.020182911 -0.05282857 -0.071432024 -0.018070139
0000b0 70 bc 50 bd 8c 0a 1c bd 30 f8 79 3b ee 0c 4c 3d
       -0.050960958 -0.038095996 0.0038142316 0.04981702
0000c0 61 32 1e bc dd 25 e5 bc 36 b6 3b 3e d1 2c 24 bd
       -0.009655566 -0.027972156 0.18331227 -0.040081803
0000d0 c0 34 ff bd 84 83 22 3e ed ef 34 bd 21 d5 85 bb
       -0.12461233 0.15870482 -0.044174124 -0.004084245
0000e0 26 85 2a bc 61 93 af 3c c5 73 05 3d 1c 4b 69 3c
       -0.010407722 0.02143258 0.03258111 0.014239099
0000f0 cc 9e 0b 3e 4d e4 da 3d 37 de 85 bd 2d c2 0e bd
       0.13634795 0.10688076 -0.06536525 -0.03485315
000100 34 90 d0 bc f3 d1 b6 3d 3d c5 a0 bd 78 b5 01 3b
       -0.025459386 0.089267634 -0.0785012 0.0019792002
000110 fb 67 f6 b9 d2 63 1d bc 8b 0b 14 3d 92 a3 56 bc
       -0.00046998248 -0.009606319 0.03614382 -0.013100522
000120 b0 5d 71 3e de 1c 02 3d 7a f4 92 bd 3f 68 20 bc
       0.23570895 0.03176581 -0.071755365 -0.009790479
000130 1e 6f ec bc a0 ff 82 3e 6a a6 f9 bc b3 42 05 ba
       -0.028861579 0.2558565 -0.03047486 -0.00050834863
000140 27 74 cf bc 8b 76 bf bd e6 22 c9 3e 4c c9 37 bd
       -0.02532394 -0.09348782 0.39284438 -0.044869706
000150 20 6a e9 bc 91 12 ca bc 67 17 0f bd bb c8 91 bd
       -0.028492987 -0.024667056 -0.034934428 -0.071183644
000160 3d a0 35 3e 5e 6b c1 3c 4a cb c9 bc 3e 77 73 bd
       0.17736907 0.023610767 -0.024633069 -0.05943989
000170 9e 03 f7 3d 6c 69 33 bc c3 16 b0 3b 23 75 3f bd
       0.12061237 -0.0109504275 0.005373807 -0.04674257
000180 f8 6e 3a bd 47 3e dc 3d 02 64 ad bd f1 79 b5 3b
       -0.045515984 0.10754066 -0.084663406 0.005538218
000190 90 ab 9c 3c e4 4b 9e bd 95 2b 65 3e 6a c1 d5 3d
       0.019124776 -0.07729319 0.22379906 0.104372814
0001a0 b6 51 50 bd 28 1b 7f 3e f9 21 b6 3d 08 a1 4d bd
       -0.050859176 0.24912703 0.088931985 -0.0502024
0001b0 0b 63 8f 3d ef 4f c7 3c 84 51 49 3d 07 97 68 3e
       0.07001313 0.024330107 0.049150005 0.22713862
0001c0 1f de 91 bd d8 15 21 bd b4 2d a2 3c e3 7a 8b bd
       -0.07122444 -0.039327472 0.019797184 -0.06810548
0001d0 22 17 be 3c d7 00 cf 3d b6 0d 92 bc 6b 47 f2 bd
       0.02320439 0.10107582 -0.017828804 -0.11830028
0001e0 93 29 7d 3c dc 16 a0 bd 0d fb 11 3d 7c 4f c1 bc
       0.015451807 -0.0781686 0.03563981 -0.023597471
0001f0 e9 38 51 3e e2 c9 e8 bd 39 aa 3d bd 99 e2 71 bd
       0.20431866 -0.11366631 -0.046304915 -0.05905399

fc2.weight f4 [64, 128]
000000 c3 6a 63 bd 57 9d cc bd 09 e0 84 3d 84 04 6e bd
       -0.055521738 -0.09990948 0.06488044 -0.058109775
000010 e6 c4 b2 bd 8a ff d0 bd ce 41 ba bd 12 03 54 3d
       -0.08728962 -0.1020499 -0.090945825 0.05176074
000020 b8 8b ad 3c f5 83 84 3c dd b6 f2 3a bb 76 b2 bd
       0.021184787 0.016176203 0.0018517632 -0.08714052
000030 32 81 44 3d d5 c5 dd 3c 23 57 8a bc 40 72 18 bd
       0.047974773 0.027071873 -0.016887253 -0.037218332
000040 d9 8a 9e 3d 1d 45 05 bd 29 8f cf bd 58 e3 23 bc
       0.07741327 -0.032536615 -0.101347275 -0.010002933
000050 a2 ba 0e bd 79 c9 ae 3d de ad 74 3d bd 15 aa bd
       -0.034845956 0.085345216 0.059736125 -0.083049275
000060 63 82 87 bd a5 d9 40 bd 74 47 09 3d 7a 8b 63 3d
       -0.06616666 -0.047082562 0.03351541 0.055552937
000070 ef f0 77 bc 1c 5c 7e bc 82 e7 18 3d 0a f7 6f 3d
       -0.015133127 -0.01552489 0.037330158 0.058585204
000080 60 67 94 bc 1d 16 85 3d 85 a9 73 bd 14 a5 b3 bc
       -0.0181157 0.064983584 -0.05948784 -0.021929301
000090 90 de f7 3c ee c1 70 bd ba c1 cf bd 88 d0 02 3c
       0.030257493 -0.058778696 -0.10144372 0.007984288
0000a0 28 ff 95 bd ca 5e 56 bd 5f 68 d0 bd 80 e7 37 3b
       -0.07324058 -0.05233649 -0.10176157 0.0028061569
0000b0 f6 86 fa bc cd 23 57 3b e1 20 af bd 65 a6 ab bd
       -0.030581933 0.0032827735 -0.08551193 -0.083813466
0000c0 4c 7a 8a bc b4 3e a1 3c f7 6a f0 3b 3c 8e a0 3c
       -0.016904019 0.01968322 0.00733697 0.019599073
0000d0 5f 9b 00 bb c0 f6 93 bd d4 10 d7 3c 6d 01 9f bd
       -0.0019623858 -0.07224798 0.026253141 -0.07763944
0000e0 f5 f5 83 3d 52 e0 62 3d f8 b6 a6 3c 88 4e 2b bd
       0.06443397 0.05538971 0.020350918 -0.04182294
0000f0 2e 5c b0 bd 81 b2 ae 3c 49 38 d2 bd 66 36 27 3d
       -0.08611332 0.021325352 -0.10264642 0.040823363
000100 bc 4e 04 3d 3e 0e ac bc c0 ab 1c bc 40 5b 35 bb
       0.03230165 -0.021002885 -0.009562433 -0.0027672797
000110 8a 52 fb bc 60 49 8e 3c b9 9e d6 bd 70 a6 3d 3c
       -0.030679006 0.017368972 -0.10479493 0.011575326
000120 79 ed 2e bd 31 a2 64 bd cc 59 24 bd c0 02 83 bd
       -0.04270694 -0.05581874 -0.0401247 -0.06397009
000130 3b 2e 87 bd 36 d6 ae bd 38 70 04 3c 3e 8e 16 3d
       -0.06600615 -0.08536951 0.008083396 0.036756746
000140 7e f4 88 bd 14 6e fb 3c 45 68 0e bd 75 3e b0 bd
       -0.06687258 0.030692138 -0.034767408 -0.08605663
000150 b5 af 88 3d 97 34 af 3d a9 f2 92 bd e5 74 76 bd
       0.066741385 0.085549526 -0.0717519 -0.060170073
000160 34 7f 8b bc 4a 5c 24 bd a0 30 f9 bb f4 59 db 3c
       -0.017028429 -0.040127076 -0.0076046735 0.026776291
000170 fe b9 57 3d b2 f4 1a 3d 58 d5 da 3c fa d2 2e 3d
       0.05266761 0.037831016 0.026713058 0.04268167
000180 e3 5a a0 3d f0 54 f6 3b 4a 83 63 bd 72 9b 5a bd
       0.07829835 0.0075174496 -0.05554513 -0.0533709
000190 45 ae b2 3d 68 29 4d bc 2b f4 a4 bd 75 f6 0c 3d
       0.087246455 -0.012522079 -0.08054384 0.034414727
0001a0 b0 df 7f 3c ec cb 82 bd fe a7 89 bc b4 c8 a1 3c
       0.015617296 -0.06386551 -0.016803738 0.019749023
0001b0 cc de 8e bd 9c 4d a2 3c e1 04 cc bd 60 d0 7c bd
       -0.06976089 0.019812398 -0.09961868 -0.06172216
0001c0 01 f7 ac bd 05 1a 20 bd ae ab 5e 3d 78 5b ff bc
       -0.0844555 -0.039087314 0.054362945 -0.031171545
0001d0 ba d3 b2 bd 3e 38 20 bd 71 99 98 3d 12 17 4e bd
       -0.0873179 -0.039116137 0.074511416 -0.05031497
0001e0 4f 6b a5 bd 8b 8a c8 3c 6a 2b a5 bd b6 bc 42 bc
       -0.08077108 0.024480125 -0.08064921 -0.0118858125
0001f0 34 5f f3 bd 10 d6 a8 bd e6 e3 d9 bc d5 d4 94 3d
       -0.11883393 -0.08243954 -0.026597928 0.07267157
000200 25 45 63 bd b0 b0 25 3d 69 7e 56 3a 1b e5 81 bd
       -0.055485863 0.040451705 0.0008182289 -0.063425265
000210 cd 16 29 3e 4f f7 58 3d 74 cd 8a 3d 26 94 23 3d
       0.16512604 0.052970227 0.06777468 0.039936207
000220 f7 d9 54 be b3 44 c5 3c e8 1f 8a bd 5a 9e d5 bc
       -0.20786272 0.02408061 -0.06744367 -0.026076484
000230 4e 6e a6 3d 94 12 60 bd dc d7 6d 3b a3 06 e8 3d
       0.08126508 -0.054705217 0.0036291992 0.11329391
000240 de f9 f1 bc 7a 0e 0e be 52 ce 7d bd 2b 54 30 be
       -0.029538091 -0.1387271 -0.06196434 -0.17219608
000250 92 95 c5 bd 86 29 dc bd 88 ae d1 bc d6 bf 47 be
       -0.09647669 -0.107501075 -0.025595918 -0.19506773
000260 0f 1f 87 3d 14 bc 5b 3d 14 91 36 3c 04 bd 08 bd
       0.06597721 0.053646162 0.011142988 -0.033383384
000270 38 92 a1 3d 86 d5 81 be 81 e6 22 bd 60 22 9e 3b
       0.07889217 -0.25358218 -0.039770607 0.004825875
000280 19 bd 8f bc 8e a6 b6 3a 11 b5 37 bd d0 4a 6b bc
       -0.017546223 0.0013935135 -0.044850413 -0.014361098
000290 8f 70 c2 3d be a8 75 bc bd fa a1 3d 6e 04 d4 3c
       0.09494125 -0.014993845 0.07909153 0.025881018
0002a0 ed 8e 1d 3e 74 e2 32 be 8c 71 0b 3e d2 40 4c bd
       0.15386553 -0.17469198 0.13617533 -0.049866505
0002b0 b0 41 21 3d ea b7 6a bd b2 8a bb 3d 63 ab fd 3d
       0.039369285 -0.0573043 0.091573134 0.12386205
0002c0 c0 68 94 bd 71 15 5c 3d 41 6f b6 bd 87 69 35 3d
       -0.07246542 0.053731386 -0.08907939 0.04429009
0002d0 ea 17 0f 3b db 06 33 3d 66 c9 61 3d 48 8e 96 bd
       0.0021834322 0.04370771 0.05512371 -0.07351357
0002e0 95 7d 19 3d ff 96 7a bd 6b f6 93 bd 78 65 b6 bc
       0.03747328 -0.061179157 -0.07224735 -0.022265181
0002f0 79 6b 2b 3e 6f 18 47 bd f1 b2 3d 3e c3 6f 70 bc
       0.16740216 -0.048607286 0.18525292 -0.014675084
000300 2d df ec bb c4 cc 6c 3d ef 99 be bd 66 8c 0e 3c
       -0.007228753 0.057812467 -0.09306704 0.008700466
000310 c5 a6 9b bd 44 a1 4e 3d 4f 90 fb 3d e4 7f 80 3d
       -0.07600168 0.050446764 0.12283384 0.06274393
000320 89 e2 90 3d 7a 3f 26 3c b5 dc 92 3d 28 d9 41 3c
       0.07074458 0.01014697 0.07171003 0.011831559
000330 ab 52 b6 bd bd 3c 13 3e 39 27 a4 3d 35 f3 45 3d
       -0.089024864 0.14378639 0.08015294 0.048327643
000340 81 9d 74 3c a2 0d 1e 3c 36 eb 52 be 21 49 63 bc
       0.01493013 0.009646805 -0.20597538 -0.013872416
000350 25 be 9d 3d 29 0f 06 3e 51 87 0e 3e de 48 16 be
       0.07702283 0.1309172 0.13918807 -0.14676234
000360 d6 40 67 3d fc f0 85 bd 5d 76 0b 3e 7f 96 2e 3d
       0.056458317 -0.06540105 0.13619371 0.042623993
000370 ad 3d 30 3e 8e 38 b5 bc 65 e8 02 3e 6f fc 0b bd
       0.17211027 -0.022121694 0.12783964 -0.034176286
000380 3d 99 76 bd 50 61 3d 3e f1 50 8d bd 76 7c 15 bd
       -0.060204733 0.18494153 -0.06900204 -0.03649565
000390 50 36 bb 3d 77 bb a2 bd 16 a6 ad bd 2f d1 d3 bd
       0.09141219 -0.07945912 -0.08478944 -0.10342633
0003a0 12 9b c4 bc cf 26 89 bd ec 94 91 3c a3 e5 a2 3d
       -0.023999725 -0.06696855 0.017771207 0.07953956
0003b0 5b e3 25 be f8 a5 80 bc e7 2a 62 3d 9b d4 96 be
       -0.1620001 -0.01570414 0.055216696 -0.2945908
0003c0 a6 11 cb bc 4e 23 58 3d 2e 5f 22 bd 1d 3e 73 bd
       -0.024788689 0.052768044 -0.03964155 -0.059385408
0003d0 2e ed 29 b9 f2 d1 99 bb 9e 98 50 bd 48 3a c1 3c
       -0.00016205452 -0.004694217 -0.050926797 0.023587361
0003e0 1e ab 3d bd 65 f9 26 3e 88 8c ed bb ce 74 4f 3d
       -0.04630577 0.16306074 -0.0072494186 0.050648503
0003f0 0c f3 5e 3e 7c dd cf 3d 04 b7 5a bd 49 e5 56 3d
       0.21772403 0.10149667 -0.053397194 0.052464757

fc2.bias f4 [64]
000000 e5 22 c6 bd 7c e1 0f bd 04 e1 94 3e 5e 30 d5 3d
       -0.09674624 -0.035127148 0.29077923 0.10409616
000010 1a 34 df 3c 63 f9 a9 bc 48 d8 21 3d ca dc 1c 3d
       0.027246524 -0.0207488 0.039512902 0.0382965
000020 2c fb 85 bd 77 41 7b 3e ed 36 91 3e 8f 48 e2 3e
       -0.06542048 0.24536692 0.28362218 0.44195983
000030 42 12 95 3e 48 48 6c bd 3d 5c e1 3d 59 6e eb bd
       0.29115492 -0.05768612 0.11003921 -0.114956565
000040 39 27 56 3e fe 63 f1 3c 32 04 37 3d 7d 2f 71 bd
       0.209134 0.029466625 0.044681735 -0.05888318
000050 72 d4 30 3d e4 13 f0 bd 55 f4 a9 bd bc bf b6 3e
       0.043171354 -0.11722544 -0.08298556 0.35693157
000060 5a af b7 3d a1 f4 b1 3e 94 ec 38 be 64 61 97 3e
       0.089689925 0.3475695 -0.18058997 0.2956649
000070 a0 38 10 bd ed c5 ca 3d 91 49 23 3e 2b 02 25 bd
       -0.03521025 0.099010326 0.15946032 -0.04028527
000080 f9 4d d1 3e 28 bc d9 bd 97 83 2e be ff fd a0 3e
       0.408798 -0.10631591 -0.17042385 0.31443784
000090 50 f0 4d 3c 17 6a 1d be 72 74 76 3c 57 69 19 bd
       0.012569502 -0.15372501 0.015042411 -0.037453976
0000a0 2c ee 2e 3e 8d c1 25 be 32 ad 46 3e 62 b5 39 bd
       0.17083043 -0.16187115 0.19402006 -0.045338996
0000b0 f7 19 a8 bc f3 80 4c bc de 50 60 3c 8a 2f 8c 3d
       -0.020520194 -0.012481916 0.013691155 0.06845005
0000c0 f1 b3 a6 bd cb 27 2f 3e 39 f5 53 3e b0 5c 01 3e
       -0.0813979 0.17105024 0.20699014 0.12633014
0000d0 be 24 a8 bc e5 f7 fb bc 64 03 17 be aa bf c3 3e
       -0.020525333 -0.030757854 -0.14747387 0.38232166
0000e0 10 16 ba bc 4e c3 8c bd cd 9f 7e bd 56 67 dc 3d
       -0.022715598 -0.06873189 -0.062164117 0.10761897
0000f0 2a c0 b3 bd ed ad 4b 3e 03 fb 4d bc 0c 49 03 be
       -0.08776887 0.19890566 -0.012572053 -0.12820834

fc3.weight f4 [10, 64]
000000 3b 10 7b bc 7c 67 ae bc 7a 5f d7 3d 9f 92 83 3d
       -0.015323694 -0.02128958 0.105162576 0.0642445
000010 30 ba 93 bd 75 38 46 3d 34 9a 82 be 33 1e 5a bd
       -0.07213247 0.048393685 -0.25508273 -0.053251456
000020 b1 12 83 bd 53 86 fd bd 07 fd fa 3d aa 6d b8 bd
       -0.064000495 -0.12379136 0.122552924 -0.09005292
000030 70 ae 0d 3e 36 e1 a4 bb b7 70 23 bd 5b 51 37 be
       0.13836074 -0.00503173 -0.039902415 -0.17902128
000040 ad 49 b4 bc 20 1e 2a be a0 70 5b 3d 9f 20 fb bc
       -0.022007788 -0.16613054 0.053574204 -0.030655203
000050 9d 3c e4 bd 25 46 7d bd e1 b3 81 3b df 78 ba be
       -0.111443736 -0.061834473 0.003958211 -0.36420342
000060 f7 59 97 3d 85 1f 9d be 94 11 4a 3c d5 47 5a bd
       0.07390206 -0.3068811 0.0123332925 -0.05329116
000070 cb ef 64 be e6 ce c5 3c 88 07 d8 bd 39 c6 cc bc
       -0.22357099 0.024146508 -0.105483115 -0.024996864
000080 9e cc 72 be d7 be c4 bd e3 d6 33 be 9c 53 84 be
       -0.23710868 -0.09606712 -0.17562442 -0.2584504
000090 9c aa c7 bd 7b ae 06 bd 8c 6b 87 bd 47 d1 7c bd
       -0.09749338 -0.03288124 -0.0661231 -0.06172302
0000a0 1a 8c a1 3a 2f 00 12 be 74 2d 73 bd ff bb 7d bd
       0.0012325079 -0.14257883 -0.05936952 -0.061946865
0000b0 62 99 16 be 6c 4e 82 be ce 2c e7 3d 9e 2f 02 be
       -0.14706948 -0.25450456 0.11287843 -0.12713477
0000c0 4f 0e aa 3d 7f 06 bf be b0 cf f2 3d ac c2 14 3d
       0.083035104 -0.37309644 0.118560195 0.036318466
0000d0 ea 6f 6e be 26 89 0d 3e cd 7f de bd ff fe 3b 3d
       -0.2328488 0.13821849 -0.1086422 0.04589748
0000e0 03 f4 a6 bd 52 b2 79 3d 57 45 65 bb 14 f8 98 3d
       -0.0815201 0.060961075 -0.0034983957 0.07469192
0000f0 24 77 c7 bd 30 b1 65 3d 3c 78 be 3d 05 41 25 3d
       -0.09739521 0.056077182 0.09300277 0.04034521
000100 8f b1 3a 3d d6 72 36 3d be 65 b4 bd a6 0d 87 be
       0.04557949 0.04454311 -0.08808468 -0.263776
000110 d3 14 21 3e aa c8 46 be be 24 8b 3a 49 0f 04 3e
       0.157306 -0.19412485 0.0010615808 0.12896456
000120 85 80 19 bd c3 7c 8a bd 1e 8b 4e 3d ca 76 63 be
       -0.03747608 -0.06762078 0.05042564 -0.22213283
000130 6d ec 06 be 45 ef c5 3d 63 8b 77 bc 1d 6a 26 3b
       -0.13176127 0.09664778 -0.015108916 0.0025392838
000140 28 58 c6 be 5e d9 2a bd 59 50 fb 3d c3 1c b0 3d
       -0.38739133 -0.041711204 0.122711845 0.08599236
000150 67 6c ec 3d 87 ab 67 3d e6 6c 12 be 81 55 1d bd
       0.115441136 0.056560066 -0.14299354 -0.03841162
000160 23 65 19 be 0c f3 90 be 96 96 33 bd 58 b9 59 be
       -0.14979987 -0.2831043 -0.04384478 -0.2126211
000170 7e b5 04 3d 51 9c ff bc b3 59 8f bd 25 21 67 bd
       0.032399647 -0.031202467 -0.06999531 -0.056428093
000180 43 6c 4b 3d 5f 7c 55 bd 08 59 af 3c b5 ce cd 3d
       0.049663793 -0.052120563 0.021404758 0.10049192
000190 fb ef db bc 2b 6c 59 3e d7 aa 1e 3d 6a d3 1a bd
       -0.02684783 0.21232669 0.038737144 -0.037799276
0001a0 16 fc b6 bc 58 8e 9c bd 6c ae 3d 3d 62 4b 71 bd
       -0.022337 -0.076443374 0.04630892 -0.05890978
0001b0 f9 f7 91 be 96 ed a2 3d df 31 e9 3d 43 55 19 be
       -0.285095 0.07955472 0.11386465 -0.14973931
0001c0 81 fc 0d be 4b 7b 96 bd 4f 01 60 be 55 9b b2 bc
       -0.13865854 -0.07347735 -0.21875499 -0.021802584
0001d0 a8 fd b5 3c 95 c2 ce 3c 19 58 12 bd 2f 35 de be
       0.02221568 0.025239268 -0.035728548 -0.4339995
0001e0 69 7c 3b bd c9 6e 8f bc e5 2f 6f bd 98 2f bf bd
       -0.045772944 -0.017508881 -0.058395285 -0.0933525
0001f0 2e 1c 9a 3d 77 34 c8 bd 13 7d 69 3d 92 98 91 3d
       0.07524906 -0.09775632 0.057004046 0.071091786
000200 47 aa 28 bd f3 5e 5e bd 7b 67 cc 3d c5 9e 64 3d
       -0.041178014 -0.05428977 0.09980675 0.055815477
000210 d0 e4 66 be c9 20 c8 3c d2 83 ab bc e4 a4 2c be
       -0.22548223 0.024429696 -0.02093688 -0.16859776
000220 63 89 3c be 25 b5 68 be 53 3e f8 bd 9e b3 b7 bd
       -0.18411784 -0.22725351 -0.121212624 -0.08969806
000230 ee 12 1a 3e 8c 04 54 3e 2b 70 a8 3d e9 43 1f be
       0.15046284 0.2070486 0.08224519 -0.1555325
000240 6b 74 ec 3d 8f 28 66 be 5f c9 f5 bd d8 70 80 bc
       0.115456425 -0.2247641 -0.12001299 -0.015678808
000250 f2 15 fe 3d d5 df d4 3c cd 80 9f bd 70 31 1b 3e
       0.124065295 0.025985638 -0.07788239 0.15155578
000260 3b d2 d1 3d 5f 3a 02 3c 3f dc 1b be 93 43 e4 bd
       0.102451764 0.007948487 -0.15220736 -0.11145701
000270 f4 3d 1c 3e 8d b4 9d bd 04 4f 9f bd b2 c6 9e bd
       0.15258008 -0.07700453 -0.07778743 -0.07752742
000280 3b 70 d3 bc 34 79 f6 bd 43 5b cc b9 32 30 86 bd
       -0.025810352 -0.120348364 -0.00038977907 -0.06552161
000290 e7 92 a7 bd 19 c1 77 bd 81 09 1d 3e 49 53 9e bd
       -0.08182316 -0.060486887 0.15335657 -0.07730729
0002a0 17 57 23 bb df 8a 55 bd e0 9c 53 be 67 74 0e bd
       -0.0024923736 -0.05213439 -0.20665312 -0.03477898
0002b0 5d 2b 06 be 0f 76 00 bd 68 fd 1c be 75 b6 b3 3d
       -0.1310248 -0.03136259 -0.15331042 0.08775035
0002c0 3e 59 0e 3e 9d 2a 08 3d 01 7e fd 3d 4c d3 a5 3d
       0.1390123 0.033243764 0.12377549 0.08096942
0002d0 85 1c a0 be e7 47 0e 3d 60 88 c3 bd 61 12 45 bc
       -0.3127176 0.03473654 -0.09547496 -0.012028308
0002e0 30 c0 ee bc 23 de 1a be d7 66 3e bb d9 da 0e 3d
       -0.029144377 -0.15123801 -0.0029052997 0.03487668
0002f0 ee 50 35 3c a0 88 bd bd f3 c1 9f bd a1 32 9f bc
       0.011066658 -0.09254575 -0.07800665 -0.019433321
000300 cd 52 cb bd af 29 51 be 11 45 31 bd 71 51 c4 bc
       -0.09927902 -0.20426057 -0.043278757 -0.023964616
000310 61 fb 99 3d 26 39 0e 3d 1a 57 84 bd af 8a c2 3c
       0.0751865 0.03472247 -0.06461926 0.02374777
000320 61 dd 10 be 00 ac c7 bd fe 25 ae be a2 0f 5c 3e
       -0.1414695 -0.09749603 -0.3401336 0.21490338
000330 f0 be 94 bc 3a 49 69 3c ac 61 ee 3c cd e1 68 bc
       -0.018157452 0.01423865 0.029099308 -0.014213991
000340 4d 04 cf bc bb 41 5c bc a3 3e 14 be 42 11 35 be
       -0.025270605 -0.013443406 -0.14477019 -0.17682365
000350 a5 e8 0b be 53 c3 d3 3b cf 69 cf bd 0a aa 18 3d
       -0.13662966 0.0064624934 -0.10127603 0.037271537
000360 d8 62 e0 bd 21 2d 81 3d 07 5d bc bd f8 25 62 bd
       -0.10956353 0.06307436 -0.09197431 -0.05521199
000370 6c 2c 33 bd 7a 49 ee 3d 4b 8d 57 3d 7c f2 43 bd
       -0.043743536 0.11635108 0.05262498 -0.047838673
000380 6f 64 1e be f9 98 97 3d c1 9b 90 bd f8 e2 0e 3e
       -0.15468 0.07402224 -0.07060958 0.13953769
000390 2f 87 8d 3d f5 61 fd bd 46 ef 65 be a1 12 87 bd
       0.0691055 -0.123721994 -0.22454557 -0.0659535
0003a0 bf b6 10 3e 34 07 cc bd b5 54 30 be 94 21 1c bd
       0.14132212 -0.099623114 -0.17219813 -0.03811796
0003b0 7c b3 da bd 78 68 23 be 7f 2b 0a 3d 32 bd fb 3d
       -0.10678765 -0.1595782 0.033732887 0.122919455
0003c0 16 7a 03 bd 1f 49 ca 3d 31 cd b9 bd 72 8f bc 3d
       -0.032098852 0.09877228 -0.0907234 0.092070475
0003d0 cd 9f a5 bd 6c 1d d5 bb 54 ce b1 3c f7 fc 13 3e
       -0.0808712 -0.0065037515 0.02170483 0.14451967
0003e0 2b 1a d7 ba 49 22 0e bd 2d aa 4f 3d 3a aa f6 bd
       -0.0016410997 -0.034700666 0.0506994 -0.12044187
0003f0 29 2d b9 bd 78 1f 84 3c ac 5a 5e be fa 6e 14 be
       -0.09041817 0.016128287 -0.21714276 -0.14495459

fc3.bias f4 [10]
000000 8b 06 ed bc 1f 59 e4 bd f7 56 99 bc ce 12 90 3e
       -0.028933784 -0.11149811 -0.018718226 0.28139347
000010 10 df ab 3e ca b9 59 bb da ea 9e bd 3d ab bd bd
       0.3356862 -0.0033222311 -0.07759638 -0.09261177
000020 3f 5c f3 3d e4 ee 46 be
       0.11882829 -0.19427067
